…
num_workers=10,
pin_mem=True,
world_size=1,
local_rank=-1,
dist_on_itp=False,
dist_url='env://',
rank=0,
gpu=0,
distributed=True,
dist_backend='nccl')
[09:16:41.063087] <__main__.InstructionDataset object at 0x7b00e1c15be0>
[09:16:41.063196] <__main__.InstructionDataset object at 0x7b00d7cf95b0>
[09:16:41.063283] Sampler_train = <torch.utils.data.distributed.DistributedSampler object at 0x7b01b3e9b100>
[09:16:49.696351] model/LLaMA-7B//consolidated.00.pth
[09:16:52.627994] before tensor([ … device='cuda:0',
       grad_fn=<SelectBackward0>)
[09:16:52.718702] Model = Transformer(
  (tok_embeddings): Embedding(32000, 4096)
  (adapter_query): Embedding(300, 4096)
  (criterion): CrossEntropyLoss()
  (layers): ModuleList(
    (0-31): 32 x TransformerBlock(
      (attention): Attention(
        (wq): Linear(in_features=4096, out_features=4096, bias=False)
        (wk): Linear(in_features=4096, out_features=4096, bias=False)
        (wv): Linear(in_features=4096, out_features=4096, bias=False)
        (wo): Linear(in_features=4096, out_features=4096, bias=False)
      )
      (feed_forward): FeedForward(
        (w1): Linear(in_features=4096, out_features=11008, bias=False)
        (w2): Linear(in_features=11008, out_features=4096, bias=False)
        (w3): Linear(in_features=4096, out_features=11008, bias=False)
      )
      (attention_norm): RMSNorm()
      (ffn_norm): RMSNorm()
    )
  )
  (norm): RMSNorm()
  (output): Linear(in_features=4096, out_features=32000, bias=False)
)
[09:16:52.718811] base lr: 4.80e-02
[09:16:52.718829] actual lr: 3.00e-03
[09:16:52.718853] accumulate grad iterations: 1
[09:16:52.718868] effective batch size: 16
[09:16:52.752191] AdamW (
Parameter Group 0
    amsgrad: False
    betas: (0.9, 0.95)
    capturable: False
    differentiable: False
    eps: 1e-08
    foreach: None
    fused: None
    lr: 0.003
…
