…
output_dir='./checkpoint/',
log_dir='./output_dir',
device='cuda',
seed=0,
resume='',
start_epoch=0,
num_workers=10,
pin_mem=True,
world_size=1,
local_rank=-1,
dist_on_itp=False,
dist_url='env://',
rank=0,
gpu=0,
distributed=True,
dist_backend='nccl')
[15:34:47.662370] <__main__.InstructionDataset object at 0x708b00d75110>
[15:34:47.662475] <__main__.InstructionDataset object at 0x708af3bee890>
[15:34:47.662574] Sampler_train = <torch.utils.data.distributed.DistributedSampler object at 0x708a7d122e50>
[15:34:56.089773] model/LLaMA-7B/consolidated.00.pth
[15:34:59.208647] Model = Transformer(
  (tok_embeddings): Embedding(32000, 4096)
  (adapter_query): Embedding(300, 4096)
  (criterion): CrossEntropyLoss()
  (layers): ModuleList(
    (0-31): 32 x TransformerBlock(
      (attention): Attention(
        (wq): Linear(in_features=4096, out_features=4096, bias=False)
        (wk): Linear(in_features=4096, out_features=4096, bias=False)
        (wv): Linear(in_features=4096, out_features=4096, bias=False)
        (wo): Linear(in_features=4096, out_features=4096, bias=False)
      )
      (feed_forward): FeedForward(
        (w1): Linear(in_features=4096, out_features=11008, bias=False)
        (w2): Linear(in_features=11008, out_features=4096, bias=False)
        (w3): Linear(in_features=4096, out_features=11008, bias=False)
      )
      (attention_norm): RMSNorm()
      (ffn_norm): RMSNorm()
    )
  )
  (norm): RMSNorm()
  (output): Linear(in_features=4096, out_features=32000, bias=False)
)
[15:34:59.208784] base lr: 9.00e-03
[15:34:59.208809] actual lr: 1.41e-04
[15:34:59.208837] accumulate grad iterations: 1
[15:34:59.208855] effective batch size: 4
[15:34:59.236696] AdamW (
Parameter Group 0
    amsgrad: False
    betas: (0.9, 0.95)
    capturable: False
    differentiable: False
    eps: 1e-08
    foreach: None
    fused: None
    lr: 0.000140625
…
