…
num_workers=10,
pin_mem=True,
world_size=1,
local_rank=-1,
dist_on_itp=False,
dist_url='env://',
rank=0,
gpu=0,
distributed=True,
dist_backend='nccl')
[12:32:52.144310] <__main__.InstructionDataset object at 0x712a4b6d6880>
[12:32:52.144399] <__main__.InstructionDataset object at 0x712a417bb460>
[12:32:52.144505] Sampler_train = <torch.utils.data.distributed.DistributedSampler object at 0x712b1d195280>
[12:33:00.688597] model/LLaMA-7B//consolidated.00.pth
[12:33:03.819861] before tensor([ … device='cuda:0',
       grad_fn=<SelectBackward0>)
[12:33:03.897680] Model = Transformer(
  (tok_embeddings): Embedding(32000, 4096)
  (adapter_query): Embedding(300, 4096)
  (criterion): CrossEntropyLoss()
  (layers): ModuleList(
    (0-31): 32 x TransformerBlock(
      (attention): Attention(
        (wq): Linear(in_features=4096, out_features=4096, bias=False)
        (wk): Linear(in_features=4096, out_features=4096, bias=False)
        (wv): Linear(in_features=4096, out_features=4096, bias=False)
        (wo): Linear(in_features=4096, out_features=4096, bias=False)
      )
      (feed_forward): FeedForward(
        (w1): Linear(in_features=4096, out_features=11008, bias=False)
        (w2): Linear(in_features=11008, out_features=4096, bias=False)
        (w3): Linear(in_features=4096, out_features=11008, bias=False)
      )
      (attention_norm): RMSNorm()
      (ffn_norm): RMSNorm()
    )
  )
  (norm): RMSNorm()
  (output): Linear(in_features=4096, out_features=32000, bias=False)
)
[12:33:03.897773] base lr: 9.00e-03
[12:33:03.897797] actual lr: 5.62e-04
[12:33:03.897817] accumulate grad iterations: 1
[12:33:03.897834] effective batch size: 16
[12:33:03.937804] AdamW (
Parameter Group 0
    amsgrad: False
    betas: (0.9, 0.95)
    capturable: False
    differentiable: False
    eps: 1e-08
    foreach: None
    fused: None
    lr: 0.0005625
…
