…
num_workers=10,
pin_mem=True,
world_size=1,
local_rank=-1,
dist_on_itp=False,
dist_url='env://',
rank=0,
gpu=0,
distributed=True,
dist_backend='nccl')
[13:43:08.120710] <__main__.InstructionDataset object at 0x779223b94bb0>
[13:43:08.120817] <__main__.InstructionDataset object at 0x779219c39970>
[13:43:08.121224] Sampler_train = <torch.utils.data.distributed.DistributedSampler object at 0x7792f5bfa100>
[13:43:16.815124] model/LLaMA-7B//consolidated.00.pth
[13:43:20.399129] before tensor([ … device='cuda:0',
       grad_fn=<SelectBackward0>)
[13:43:20.492548] Model = Transformer(
  (tok_embeddings): Embedding(32000, 4096)
  (adapter_query): Embedding(300, 4096)
  (criterion): CrossEntropyLoss()
  (layers): ModuleList(
    (0-31): 32 x TransformerBlock(
      (attention): Attention(
        (wq): Linear(in_features=4096, out_features=4096, bias=False)
        (wk): Linear(in_features=4096, out_features=4096, bias=False)
        (wv): Linear(in_features=4096, out_features=4096, bias=False)
        (wo): Linear(in_features=4096, out_features=4096, bias=False)
      )
      (feed_forward): FeedForward(
        (w1): Linear(in_features=4096, out_features=11008, bias=False)
        (w2): Linear(in_features=11008, out_features=4096, bias=False)
        (w3): Linear(in_features=4096, out_features=11008, bias=False)
      )
      (attention_norm): RMSNorm()
      (ffn_norm): RMSNorm()
    )
  )
  (norm): RMSNorm()
  (output): Linear(in_features=4096, out_features=32000, bias=False)
)
[13:43:20.492642] base lr: 3.00e-04
[13:43:20.492660] actual lr: 1.87e-05
[13:43:20.492681] accumulate grad iterations: 1
[13:43:20.492695] effective batch size: 16
[13:43:20.556516] AdamW (
Parameter Group 0
    amsgrad: False
    betas: (0.9, 0.95)
    capturable: False
    differentiable: False
    eps: 1e-08
    foreach: None
    fused: None
    lr: 1.875e-05
…
